10
[-100. -100. -100. -100. -100. -100. -100. -100. -100. -100.]
[100. 100. 100. 100. 100. 100. 100. 100. 100. 100.]
[-32.2013, 64.9776, -38.3, -23.2582, -54.0088, 86.6286, -6.3009, -49.3644, 5.3499, 52.2418] None
_________________________________________________________________
Layer (type)                 Output Shape              Param #   
=================================================================
flatten_1 (Flatten)          (None, 99)                0         
_________________________________________________________________
dense_1 (Dense)              (None, 100)               10000     
_________________________________________________________________
dense_2 (Dense)              (None, 100)               10100     
_________________________________________________________________
dense_3 (Dense)              (None, 100)               10100     
_________________________________________________________________
dense_4 (Dense)              (None, 100)               10100     
_________________________________________________________________
dense_5 (Dense)              (None, 4)                 404       
=================================================================
Total params: 40,704
Trainable params: 40,704
Non-trainable params: 0
_________________________________________________________________
Model Summary:  None
Testing for 25 episodes ...

$$$$$$$$$$$$$$$$$$$$$$$$$$$$$$$$$$$$$$$ 0.0 -450.0 -445.01588176738085 $$$$$$$$$$$$$$$$$$$$$$$$$$$$$$$$$$$$$$$

Episode 1: reward: 4244.000, steps: 9900
…
